後期課題/Assets/TestAgent.onnx (onnx, 85862 bytes, 8 tensors)

network_body.observation_encoder.processors.0.normalizer.running_mean f4 [21]
0	0x3e25872a	0.16164842
1	0x3f568d9a	0.83809817
2	0x3f5e4dfa	0.8683773
3	0x3e0523d3	0.13001947
4	0x3f5eaacd	0.8697937
5	0x3f64c54e	0.89363563
6	0x3e0e594b	0.1390125
7	0x3f5c5bb8	0.8607745
8	0x3f6258d6	0.884168
9	0x3dbe203f	0.09283494
10	0x3f6836bd	0.90708524
11	0x3f6c0300	0.9219208
12	0x3dd329c5	0.10310701
13	0x3f6594b4	0.8968003
14	0x3f69d70c	0.9134376
15	0x3d86d866	0.065842435
16	0x3f6f2092	0.93409073
17	0x3f729c0c	0.9476936
18	0x3d885fa4	0.06658867
19	0x3f6ef16f	0.9333715
20	0x3f71f31b	0.94511575

network_body._body_endoder.seq_layers.0.weight f4 [128, 21]
0	0x3e91aa42	0.2845021
1	0x3df818f5	0.12114135
2	0xbe9ea7fe	-0.30987543
3	0x3c3dfc0a	0.011595735
4	0xbdda6c11	-0.10665143
5	0xbd97ef63	-0.07418706
6	0x3de26667	0.11054688
7	0x3de6a72f	0.112623565
8	0x3d61ba18	0.055109113
9	0xbe2aed35	-0.1669205
10	0xbeba148a	-0.36343795
11	0xbec884f6	-0.3916394
12	0x3d4c4bcc	0.049876973
13	0xbe9a190a	-0.30097228
14	0x3cd6a85f	0.026203332
15	0xbe6d27e0	-0.23159742
16	0x3e959c1c	0.29220665
17	0xbc115178	-0.008869521
18	0x3ce1f203	0.02758122
19	0x3e311654	0.17293674
20	0x3e2df41a	0.16987649
21	0xbd19c38a	-0.037539996
22	0xbdcbaeba	-0.09945436
23	0x3e455bc1	0.19273283
24	0xbcf6f091	-0.030144008
25	0xbcafa0ac	-0.021438919
26	0xbe35fd29	-0.17772354
27	0x3ea14073	0.31494483
28	0x3eda9f08	0.42699456
29	0x3e206cbb	0.15666477
30	0x3d25f0a4	0.040512696
31	0x3d22a015	0.039703447
32	0xbbd9aef9	-0.006643173
33	0x3e007a1d	0.12546583
34	0x3d7a8f17	0.061171617
35	0xbdbee09f	-0.09320187
36	0x3d0fa904	0.035073295
37	0xbe817dc8	-0.25291276
38	0x3d7ef503	0.06224538
39	0xbdb85658	-0.09000844
40	0x3e016d1b	0.12639277
41	0x3e22b059	0.15887584
42	0x3ea65911	0.32489827
43	0x3e8d7b17	0.27632973
44	0xbcf53186	-0.029930841
45	0xbe87bf97	-0.2651336
46	0x3f13148a	0.57453215
47	0x3e1b8887	0.151888
48	0x3eca6d19	0.3953636
49	0xbd7317b4	-0.059348777
50	0xbd76e839	-0.06028006
51	0x3dc4f67d	0.096173264
52	0x3dc0409f	0.093873255
53	0x3eee03a6	0.4648716
54	0xbe4eab3c	-0.20182508
55	0xbdd768ba	-0.10518022
56	0xbe23c266	-0.15992126
57	0xbd60e9a4	-0.054910317
58	0xbef64f1a	-0.48107225
59	0xbd81549f	-0.06314968
60	0xbcd74599	-0.026278304
61	0x3eea0fa0	0.45715046
62	0xbda89d29	-0.08233101
63	0x3e0d5c3f	0.1380472
64	0x3db3b7ae	0.087752685
65	0xbf137143	-0.575947
66	0xbee4a519	-0.4465721
67	0x3eceb75e	0.40374273
68	0x3e1aa646	0.15102491
69	0xbe3b0cc2	-0.18266585
70	0x3ea96761	0.33086684
71	0x3e3fa48a	0.1871511
72	0xbeac6c96	-0.33676594
73	0x3e250f97	0.16119228
74	0xbe19805a	-0.14990368
75	0x3bb70247	0.0055849883
76	0xbe074572	-0.13210085
77	0x3e16daf1	0.14731957
78	0xbd94649f	-0.072457545
79	0x3e43de12	0.19127682
80	0xbef4e905	-0.4783403
81	0xbd235cb2	-0.039883323
82	0xbeb49d0d	-0.3527607
83	0xbedfdaaa	-0.43721515
84	0xbe0db9fd	-0.1384048
85	0xbe80e0c1	-0.25171474
86	0xbe6c2f6d	-0.23064966
87	0xbe8588a9	-0.26080826
88	0xbebfb0da	-0.37439615
89	0x3e8e4505	0.27787033
90	0xbe31cc3e	-0.17363068
91	0xbe1f4253	-0.15552644
92	0xbd5607cd	-0.052253533
93	0xbe48ec67	-0.1962143
94	0x3dd09964	0.10185507
95	0xbdd4f7b5	-0.10398809
96	0x3c8a3df3	0.016875243
97	0x3e3bd649	0.18343462
98	0x3e5df3bd	0.2167501
99	0xbd6c0a0c	-0.05762677
100	0x3ecc6fd4	0.39929068
101	0x3e7fc3a1	0.2497697
102	0x3d59fe4e	0.05322104
103	0x3d6fb2b5	0.058520038
104	0x3e98b0f5	0.29822508
105	0xbe596afc	-0.21232218
106	0xbe42c022	-0.19018605
107	0x3e19c4ef	0.1501653
108	0xbe461d81	-0.19347192
109	0x3e3a2e2a	0.18181673
110	0x3e842385	0.2580835
111	0xbeabaaf3	-0.3352886
112	0x3edc3e3e	0.43016237
113	0xbe0aaf47	-0.13543426
114	0x3d406cd2	0.04697878
115	0xbe929cfd	-0.28635398
116	0xbe599a6e	-0.21250317
117	0xbeaf1ade	-0.34200186
118	0x3d090477	0.033451524
119	0x3e0479e6	0.12937126
120	0x3e657ca4	0.22410828
121	0xbe0e55f7	-0.1389998
122	0x3d0e3549	0.034718785
123	0xbd9996d4	-0.07499471
124	0x3e5eb988	0.21750462
125	0x3f7e4b46	0.9933361
126	0x3c36075a	0.011110151
127	0x3e4842a1	0.19556667
128	0x3ea60b0c	0.32430303
129	0xbebbb19d	-0.36658946
130	0xbce5cf1f	-0.028052865
131	0x3eb543df	0.35403344
132	0x3dc0bcb0	0.09410989
133	0x3eba5b4e	0.36397785
134	0xbe2afa6e	-0.16697094
135	0x3d82ff64	0.06396368
136	0x3b4510a8	0.0030069742
137	0x3f01fa4f	0.50772566
138	0xbeaf7ffc	-0.34277332
139	0xbe9c0426	-0.30471915
140	0xbd971e24	-0.07378796
141	0x3e3f41da	0.18677464
142	0x3d9cf57a	0.076640084
143	0x3d091cdb	0.033474784
144	0xbe8df1cd	-0.27723542
145	0x3daf80b3	0.08569469
146	0xbe51604b	-0.20446889
147	0xbecfd972	-0.40595585
148	0x3e47cd9f	0.19512032
149	0xbe5e8b39	-0.21732797
150	0x3d4778e6	0.048699282
151	0xbbf6ada9	-0.007528026
152	0xbe3c1639	-0.18367852
153	0x3e3908e1	0.18069793
154	0xbd8c16c2	-0.06840278
155	0x3ca6bdea	0.02035423
156	0xbe61c48d	-0.22047634
157	0x3e66c9d8	0.22537935
158	0x3e4e7511	0.20161845
159	0xbecf53f4	-0.4049374
160	0x3e88b758	0.2670238
161	0xbed1f6f2	-0.41008717
162	0x3cd5971d	0.026073033
163	0x3e59499f	0.2121949
164	0x3e58a412	0.21156338
165	0x3dd99662	0.10624386
166	0xbe244370	-0.1604135
167	0x3dbad948	0.09123474
168	0x3edb8e09	0.42881802
169	0xbe62219b	-0.22083132
170	0xbe8fa1a2	-0.28053004
171	0xbd15f636	-0.03661176
172	0xbd3fe978	-0.046853513
173	0x3dbc1c65	0.09185103
174	0xbdfe3921	-0.1241324
175	0xbe4851c7	-0.19562446
176	0xbe90a9a0	-0.28254414
177	0xbdb75326	-0.08951406
178	0xbcebae56	-0.028769653
179	0x3e268694	0.16262275
180	0x3e8c1628	0.27360654
181	0xbe024564	-0.12721783
182	0x3e2a68d1	0.16641547
183	0xbe83ea1b	-0.25764546
184	0xbe472763	-0.19448619
185	0xbe1b2356	-0.15150198
186	0xbd5bbd4f	-0.053647336
187	0xbea6fa05	-0.32612625
188	0x3ee8133a	0.4532717
189	0x3e5dcc73	0.21660022
190	0xbec951af	-0.39320132
191	0xbe1e2158	-0.15442407
192	0xbe34c123	-0.17651801
193	0xbcf1ad7c	-0.02950167
194	0x3e394927	0.18094312
195	0xbd0a6914	-0.033791617
196	0x3ee5c73b	0.44878563
197	0x3d123f60	0.03570497
198	0xbdc11273	-0.09427347
199	0x3ec100a5	0.37695804
200	0x3dd2708a	0.102753714
201	0xbe0d3cdf	-0.13792752
202	0xbc6fd200	-0.01463747
203	0x3e87237b	0.26394257
204	0x3dad65d1	0.084666856
205	0xbf09445f	-0.5361995
206	0x3a96e060	0.0011510961
207	0xbd1a8afb	-0.0377302
208	0x3e83c346	0.2573492
209	0x3e0df0ec	0.13861436
210	0xbe863f53	-0.26220188
211	0xbdb8c891	-0.0902263
212	0x3e73253b	0.23744671
213	0xbd799b6c	-0.060939237
214	0xbd9c03f2	-0.0761794
215	0x3ea3a5fd	0.31962577
216	0xbe1a2f06	-0.15057
217	0xbd8d4780	-0.06898403
218	0xbdf10d47	-0.117701106
219	0xbc86d099	-0.016456889
220	0xbecee81d	-0.40411463
221	0xbecd6e3f	-0.40123174
222	0xbdb75c40	-0.08953142
223	0x3e4a0345	0.1972781
224	0x3e04de47	0.12975417
225	0x3e6c7a46	0.23093519
226	0x3ecf4ae4	0.40486825
227	0xbeabda3c	-0.33564937
228	0xbe93e314	-0.28884184
229	0xbf49aeb0	-0.78782177
230	0x3da6230f	0.08112156
231	0xbe071031	-0.1318977
232	0x3e6e3191	0.23261096
233	0x3e92c3d9	0.28665045
234	0x3d5a5b9b	0.053310018
235	0x3ef5052d	0.4785551
236	0x3e12b818	0.14328039
237	0xbd90c6b0	-0.07069147
238	0x3e94f4f3	0.2909313
239	0xbeb9b2f8	-0.36269355
240	0xbe1f13d0	-0.15534902
241	0x3d3257d8	0.043540806
242	0x3e3937c8	0.18087685
243	0x3c9b6968	0.01897116
244	0x3a24adef	0.00062820216
245	0x3ebe8637	0.37211773
246	0xbeb610d3	-0.3555971
247	0xbe5a0e73	-0.21294574
248	0xbdb7179a	-0.089400485
249	0xbca76284	-0.020432718
250	0x3e42eff0	0.19036841
251	0xbd356173	-0.044282388
252	0xbe627536	-0.22115025
253	0x3e8bf0a0	0.2733202
254	0xbd31381a	-0.043266393
255	0xbd0d661c	-0.034521207

network_body._body_endoder.seq_layers.0.bias f4 [128]
0	0x3cbcabc3	0.023031121
1	0xbd30dcc0	-0.043179274
2	0x3d91399a	0.07091065
3	0x3d068192	0.03283841
4	0x3d6b7aba	0.057490088
5	0x3d6048a7	0.054756787
6	0x3aa9f8bb	0.0012967804
7	0x3cd6780f	0.026180295
8	0x3cfb3865	0.03066654
9	0x3d6442a0	0.0557276
10	0x3aa4fb0b	0.0012587024
11	0x3c14cff0	0.009082779
12	0x3d6e22e9	0.05813876
13	0x3d0af231	0.033922378
14	0xbcafcc86	-0.021459829
15	0xbc8d0b56	-0.01721732
16	0x3d0680f1	0.03283781
17	0x3ba28d84	0.0049607176
18	0x3d106f71	0.03526253
19	0x3d4fd2ff	0.05073833
20	0x3d3a2e3e	0.045454256
21	0xb9853412	-0.00025406532
22	0x3d4415f6	0.047872506
23	0x3d4aca53	0.049509358
24	0x3d3365e3	0.04379834
25	0x3d69b860	0.0570606
26	0x3c6ef0fa	0.0145838205
27	0x3cc548b4	0.02408252
28	0x3b6adbca	0.003583657
29	0x3d39bd72	0.045346685
30	0x3d609f1d	0.054839242
31	0xbb9c79f5	-0.0047752806
32	0x3ce38bb8	0.027776584
33	0x3c74e571	0.014947281
34	0x3d04f988	0.032464534
35	0xbc345a6d	-0.011007887
36	0x3b1c84f8	0.0023882966
37	0xbd08de88	-0.033415347
38	0x3dd82e51	0.10555709
39	0x3d710379	0.058841202
40	0xbbda96e1	-0.006670818
41	0x3c08d924	0.008352552
42	0xbb8a330d	-0.0042175115
43	0xbc95868d	-0.018252635
44	0x3bd2d3eb	0.006433954
45	0x3d0e149b	0.03468762
46	0x3d77c2fa	0.06048868
47	0x3d5bf5b8	0.053701133
48	0xbd03662e	-0.032079868
49	0x3cb90094	0.022583283
50	0xb9723f5d	-0.00023102523
51	0xbc48672b	-0.012231628
52	0x3c113a78	0.008864038
53	0xbba46c90	-0.0050178245
54	0x3d0c5c90	0.034267962
55	0x3d94bc24	0.072624475
56	0x3d6b2384	0.057406917
57	0x3d3d1ccf	0.046170052
58	0xbd005101	-0.03132725
59	0x3c17c010	0.0092621
60	0x3d440e41	0.047865156
61	0x3d62e65a	0.05539546
62	0xbc81d3c8	-0.015848055
63	0x3d55279d	0.05203973
64	0xbc00360d	-0.007825387
65	0x3c3e84b2	0.011628317
66	0x3c984afb	0.018590441
67	0x3d21058b	0.039311927
68	0x3d99ade4	0.0750387
69	0x3c0becd4	0.008540351
70	0x3d315c7b	0.043301087
71	0x3d492468	0.049106985
72	0x3d7dfec5	0.062010545
73	0x3cd20087	0.025635017
74	0x3cb48565	0.022036264
75	0x3ca29b09	0.019849317
76	0x3c7f61ee	0.015587313
77	0x3ca8041b	0.02050977
78	0x3b862c14	0.00409461
79	0xbadfdd71	-0.0017079544
80	0x3cb2fb38	0.021848306
81	0x3c71708a	0.014736304
82	0x3d88b79f	0.06675648
83	0x3d3a28a0	0.0454489
84	0x3d972a85	0.07381157
85	0x3d522881	0.05130816
86	0xbc9f614d	-0.019455576
87	0x3d08785b	0.033317905
88	0xbae35910	-0.0017345268
89	0x3cd7a8e1	0.026325645
90	0x3d43d8b5	0.04781409
91	0xbd016b74	-0.031596616
92	0xbbf478fc	-0.0074607115
93	0x3d2ad7c4	0.041709676
94	0x3d25e9b3	0.040506076
95	0x3bff3655	0.0077884593
96	0x3cf592ee	0.029977288
97	0x3d8864ac	0.06659827
98	0x3d4c8ff6	0.04994198
99	0xbc931719	-0.01795535
100	0xbd296907	-0.041359928
101	0xbc292431	-0.01032357
102	0xbd13d905	-0.036095638
103	0xbc173498	-0.009228848
104	0x3d0b7220	0.034044385
105	0x3d3f308b	0.046677154
106	0xbd1246fb	-0.035712224
107	0x3d1490ac	0.036270782
108	0x3d38c2ad	0.045107532
109	0xba9484ee	-0.001133112
110	0xbc9e5d06	-0.019331466
111	0x3d0044bc	0.03131555
112	0x3d33142b	0.043720406
113	0x3cdd5a4a	0.027020592
114	0x3bc60ec2	0.0060442397
115	0xbc0ae12f	-0.0084765395
116	0x3c212315	0.009835024
117	0x3d1e7ecb	0.038695138
118	0x3d03aaf6	0.032145463
119	0x3cf5325e	0.029931244
120	0x3d3d637c	0.046237454
121	0x3d4e87fd	0.050422657
122	0x3d730326	0.059329174
123	0x3d65977c	0.05605267
124	0x3cac17c5	0.021007428
125	0x3d406319	0.046969507
126	0xbc05bf18	-0.008163236
127	0x3d4aa581	0.049474243

network_body._body_endoder.seq_layers.2.weight f4 [128, 128]
0	0xbe0839f4	-0.13303357
1	0xbd9950ef	-0.0748614
2	0xbddf69e2	-0.109088674
3	0x3de17f1a	0.11010571
4	0xbb4e0356	-0.0031435094
5	0xbd4b733d	-0.049670447
6	0xbda9d48c	-0.08292493
7	0xbcf8a429	-0.030351715
8	0x3dd86434	0.10565987
9	0xbe34e5bf	-0.17665766
10	0xbd9fe9c0	-0.07808256
11	0xbe130136	-0.1435593
12	0x3db5d42a	0.08878358
13	0x3d3a6430	0.045505702
14	0xba6dfa89	-0.0009078165
15	0xbd179fc0	-0.037017584
16	0xbb101bdd	-0.0021989264
17	0x3d07d50c	0.03316216
18	0x3d73f4d7	0.05955967
19	0x3d4cf6b1	0.05003995
20	0xbdccc5d7	-0.099986725
21	0x3e1ab09b	0.15106432
22	0x3d3c3f1a	0.045958616
23	0xbd3db067	-0.04631081
24	0xbc64b069	-0.013958075
25	0xbc301919	-0.010748171
26	0x3c39adad	0.011332911
27	0x3deaab84	0.11458495
28	0xbb59b1a8	-0.0033217464
29	0xbe148d07	-0.14506923
30	0xbc521123	-0.0128214685
31	0xbe339a66	-0.17539367
32	0xbe2a8f19	-0.1665615
33	0xbd69d558	-0.057088226
34	0xbe1d4580	-0.15358543
35	0xbcf67277	-0.030083878
36	0xbd2f89dd	-0.042856086
37	0x3ddaa45e	0.10675882
38	0xbe4a3266	-0.19745788
39	0x3dea211d	0.11432097
40	0x3e198de4	0.14995533
41	0xbca9a0b5	-0.020706514
42	0x3e6a50d5	0.22882397
43	0x3bd4a8c5	0.0064898455
44	0x3ce01b0c	0.027356647
45	0x3d2cba2c	0.042169735
46	0x3d925b26	0.071462914
47	0xbd6002c7	-0.05469015
48	0xbd083b06	-0.033259414
49	0xbdbc4fa1	-0.091948755
50	0xbdabe8db	-0.08394023
51	0x3c410739	0.011781507
52	0xbe471e7b	-0.19445221
53	0xbda70978	-0.08156103
54	0x3e0bfea7	0.13671361
55	0x3d649624	0.055807248
56	0xbdb10c48	-0.086449206
57	0x3d99225b	0.07477256
58	0x3def458f	0.11683189
59	0xbcb9636b	-0.022630414
60	0xbdc9f6d2	-0.0986153
61	0x3b93fd9c	0.0045163166
62	0xbda8875f	-0.08228945
63	0xbd06cd3a	-0.032910563
64	0x3d8ee93c	0.0697808
65	0x3da31d16	0.07964532
66	0x3d783765	0.060599703
67	0xbda9ffb7	-0.08300727
68	0xbdb91aab	-0.0903829
69	0xbdee93ab	-0.11649259
70	0x3c181882	0.009283187
71	0xbaa17f6e	-0.0012321302
72	0xbd164e41	-0.036695722
73	0x3d55b558	0.052174896
74	0xbdf93fa0	-0.12170339
75	0xbd886b56	-0.06661098
76	0xbdc0302e	-0.093841895
77	0xbda07251	-0.07834304
78	0xbdcb9258	-0.09940022
79	0xbd1666f4	-0.036719278
80	0x3cf6b636	0.030116182
81	0x3cc1b2f8	0.02364491
82	0x3d5318ff	0.05153751
83	0xbd916d32	-0.071009055
84	0x3e03883f	0.12844943
85	0x3e241b45	0.16026028
86	0x3b19122a	0.0023356774
87	0x3e51e96d	0.20499201
88	0xbe144f7f	-0.1448345
89	0xbc73f868	-0.014890768
90	0xbdc859e3	-0.097827695
91	0x3e0f31cc	0.1398384
92	0x3cd8b692	0.026454244
93	0x3d0b98e8	0.03408137
94	0xbcccf7a7	-0.025020434
95	0xbaafc8a1	-0.0013411233
96	0xbd3cef79	-0.046126816
97	0x3d800778	0.062514246
98	0xbc96f5da	-0.018427778
99	0xbc50f771	-0.012754307
100	0xbd8c61ff	-0.06854629
101	0xbe6ee13a	-0.23328105
102	0xbc5c2242	-0.013435902
103	0x3d9b84fc	0.07593724
104	0xbd10464e	-0.035223298
105	0xbdd2706f	-0.10275351
106	0xbcdca846	-0.026935708
107	0x3d1233e6	0.035694025
108	0x3e125665	0.1429077
109	0x3e1a6fe7	0.1508175
110	0xbc82b771	-0.015956612
111	0xbc4e5c14	-0.012595195
112	0x3e090ca5	0.1338373
113	0xbd9590fc	-0.07303044
114	0x3df033df	0.117286436
115	0x3e20d277	0.15705286
116	0x3c6a1967	0.014288283
117	0xbe6a890b	-0.2290384
118	0x3e406c17	0.18791233
119	0xbde27696	-0.11057775
120	0x3da28304	0.079351455
121	0xbe25870e	-0.161648
122	0x3b22daef	0.0024849733
123	0xbe55aee8	-0.20867503
124	0xbd5f5c6a	-0.054531492
125	0xbe39bd9d	-0.18138738
126	0xbd84264e	-0.064526185
127	0x3d5a162f	0.053243812
128	0xbd4a7f76	-0.049437962
129	0x3d721510	0.059102118
130	0x398a4e82	0.00026379904
131	0x3d13e0df	0.036103126
132	0x3de2dd29	0.11077339
133	0xbdb62bcc	-0.08895072
134	0xbe0e5036	-0.13897786
135	0xbd0ab5c2	-0.033864744
136	0xbdf7a422	-0.12091853
137	0xbdc0f699	-0.09422035
138	0x3de1d037	0.11026042
139	0xbde9a777	-0.114088945
140	0x3cf92964	0.030415244
141	0xbcf9caa9	-0.030492144
142	0xbbee5b7e	-0.0072740903
143	0xbc9db09a	-0.01924925
144	0x3de9736e	0.113989696
145	0x3d1d8fe2	0.038467295
146	0x3d34cdf9	0.044141743
147	0x3d9354ba	0.07193895
148	0x3c41d807	0.01183129
149	0xbd716f46	-0.05894401
150	0xbe10d643	-0.14144234
151	0xbc4356bb	-0.011922534
152	0xbd94c886	-0.07264809
153	0x3dd94e82	0.10610677
154	0x3d0941a2	0.033509858
155	0xbe03bfc3	-0.1286612
156	0x3e538817	0.20657383
157	0xbd5a1148	-0.053239137
158	0xbccc076a	-0.024905879
159	0xba8d3e74	-0.0010776059
160	0x3d80bfbb	0.0628657
161	0xbdcd39cc	-0.100207895
162	0x3d084fa7	0.033279087
163	0x3e012ab2	0.12613943
164	0x3d7eac7c	0.062176213
165	0x3d833e79	0.064084
166	0x3e247a2f	0.16062234
167	0xbdf7e9ea	-0.121051624
168	0x3d4fc41e	0.05072414
169	0x3d8c1b90	0.06841195
170	0xbb02084b	-0.0019841369
171	0x3d32fa5c	0.043695793
172	0x3da70834	0.081558615
173	0xbe1d7967	-0.15378343
174	0xbe0c5cac	-0.13707227
175	0x3c1d94eb	0.009618024
176	0xbd9eba8c	-0.07750425
177	0x3c861660	0.016368091
178	0x3c6dde3a	0.014518315
179	0x3ddd4b6e	0.10805403
180	0xbdc7f841	-0.097641475
181	0x3b87f219	0.0041487333
182	0xbc48e266	-0.012261009
183	0x3da8d120	0.082430124
184	0xbdc573d3	-0.09641232
185	0xbd3ce24b	-0.046114247
186	0x3d6e60b7	0.058197703
187	0xbda7a321	-0.08185411
188	0xbdbfebb8	-0.09371132
189	0xbd4483dd	-0.047977317
190	0xbd8c48f2	-0.06849851
191	0x3c1e4aa4	0.00966135
192	0x3d53eff5	0.051742513
193	0xbdff7ce0	-0.1247499
194	0xbb1516aa	-0.0022749105
195	0xbcd86b4c	-0.02641835
196	0xbd9ccb00	-0.07655907
197	0xbccc78c7	-0.024959935
198	0xbd773b69	-0.060359392
199	0x3b943a51	0.0045235534
200	0xbd48150a	-0.04884819
201	0xbd25c887	-0.04047444
202	0x3d8a9f20	0.06768632
203	0x3e3b242d	0.18275519
204	0x3de5fb55	0.112295784
205	0x3d7455d4	0.059652165
206	0xbcb9181f	-0.02259451
207	0xbddf2d62	-0.10897328
208	0x3c106750	0.008813694
209	0x3d555e23	0.05209173
210	0xbdaf61fd	-0.08563612
211	0xbd3fd8ff	-0.046837803
212	0xbda64a0c	-0.08119592
213	0x3c733b13	0.014845627
214	0x3d035529	0.032063637
215	0xbe32812d	-0.17432089
216	0xbcad22b5	-0.021134714
217	0x3d7b7466	0.061390303
218	0xbc093d44	-0.008376423
219	0x3d9da637	0.076977186
220	0xbd9da321	-0.0769713
221	0xbdf64c21	-0.12026239
222	0x3e29f460	0.16597128
223	0x3d8cfd35	0.06884233
224	0x3d5cbe05	0.053892154
225	0x3da95008	0.08267218
226	0x3d28c08c	0.041199252
227	0x3bdae027	0.006679553
228	0xbd198e17	-0.037489023
229	0xbdface37	-0.122463636
230	0x3da021ad	0.07818923
231	0x3bbd4c13	0.005776891
232	0xbdd27dfa	-0.10277934
233	0xbcf68d69	-0.030096726
234	0x3d6277ce	0.055290036
235	0xbe13fb5b	-0.14451353
236	0x3d529bda	0.051418163
237	0x3daa241b	0.08307668
238	0x3deae0b8	0.11468643
239	0x3cbe6499	0.023241328
240	0x3bd86d9c	0.0066048633
241	0xbd91b77f	-0.07115077
242	0x3dc98caf	0.098412864
243	0x3c156cd3	0.009120184
244	0xbce183d8	-0.027528688
245	0x3d2963d1	0.041354958
246	0x3e255e7c	0.16149324
247	0xbd882e94	-0.06649509
248	0x3a3fcf82	0.0007316993
249	0x3e05fe8d	0.13085385
250	0x3c5c45e7	0.0134444
251	0x3b68f5c5	0.003554688
252	0x3d4eea8e	0.050516658
253	0xbc9827a9	-0.018573599
254	0x3d6ac3e4	0.057315722
255	0xbc92429b	-0.017854026

network_body._body_endoder.seq_layers.2.bias f4 [128]
0	0xbcba42ec	-0.022736989
1	0xbc3f8180	-0.01168859
2	0x3c7b3ffb	0.015335078
3	0x3d7742e4	0.060366526
4	0x3c197db2	0.009368347
5	0xbc26cc34	-0.010180522
6	0x3c9c97d2	0.019115362
7	0x3d62ab8b	0.055339377
8	0x3d1c41f2	0.038148828
9	0x3d62a5e2	0.05533398
10	0xbbca6e04	-0.0061776657
11	0x3ce10d7a	0.027472246
12	0x3ce80840	0.028324246
13	0x3ca0acd0	0.019613653
14	0x3c7e3bdb	0.0155172
15	0x3cb181c8	0.02166833
16	0x3d03c65f	0.032171603
17	0x3c86890f	0.016422777
18	0x3d12b0af	0.03581303
19	0x3ca4500b	0.020057699
20	0xbbffb9b0	-0.007804118
21	0x3d9337b5	0.0718836
22	0x3d23a2a5	0.03995003
23	0x3d21cd54	0.039502457
24	0x3cc1800b	0.023620626
25	0x3cf8aa16	0.03035454
26	0x3ba21d27	0.004947323
27	0x3d49c20c	0.049257323
28	0x3d9d2db8	0.07674736
29	0x3cbf1ff0	0.023330659
30	0x3c3182ca	0.010834405
31	0x3d057441	0.03258157
32	0x3d12d81b	0.035850625
33	0x3d325617	0.043539133
34	0xbb87209e	-0.0041237613
35	0x3bfb181f	0.0076627876
36	0x3d6dc3b6	0.058047973
37	0x3bb2e7db	0.005459768
38	0x3c7285ad	0.014802379
39	0x3c3d88da	0.0115682725
40	0x3beb5981	0.0071823006
41	0x3d359a85	0.044336814
42	0x3d4c566c	0.049887106
43	0xbbfae7c3	-0.0076570227
44	0x3d47a99d	0.04874574
45	0x3d15efeb	0.036605757
46	0x3d0819b5	0.03322764
47	0xbc844fb7	-0.016151292
48	0xbb6e82cd	-0.0036393881
49	0xbc9b912c	-0.018990122
50	0x3c2064d4	0.009789664
51	0x3c876543	0.016527778
52	0xbb1a0251	-0.0023499916
53	0x3c66cda2	0.014087113
54	0x3d1eba8a	0.038752116
55	0x3c8cd70a	0.017192382
56	0xbc302d82	-0.010753037
57	0x3c2b926c	0.010471921
58	0x3cf8e40a	0.030382175
59	0x3d3ad5e7	0.04561415
60	0xbbce6268	-0.006298352
61	0x3c684c58	0.014178358
62	0x3ce3729c	0.027764611
63	0xbce86d15	-0.028372327
64	0x3d352756	0.044226967
65	0x3d9364a1	0.07196928
66	0x3ce4ad0d	0.027914548
67	0xbb957cdc	-0.0045620035
68	0x3d4d9b70	0.050197065
69	0x3c9dffb5	0.01928697
70	0x3b5b4b85	0.0033461761
71	0x3c6e713e	0.014553366
72	0xbbc2d7cd	-0.0059461356
73	0x3d545fb5	0.051849086
74	0xbb97f752	-0.004637637
75	0x3d428d61	0.04749811
76	0x3d338306	0.043826126
77	0x3d11be63	0.035581958
78	0xbc07fdc7	-0.008300251
79	0xbc027a45	-0.007963722
80	0x3c96aa5e	0.018391784
81	0xbd0901e6	-0.033449076
82	0x3d5917b2	0.053001113
83	0x3d07d9c7	0.033166673
84	0x3bfabdc4	0.0076520164
85	0x3d89dc52	0.06731476
86	0x3cf4cb28	0.029882029
87	0x3cbe9874	0.023266055
88	0x3cf0a39e	0.029374894
89	0x3b785856	0.003789445
90	0x3c3ec19e	0.011642842
91	0xbba23122	-0.0049497047
92	0xbc32c71f	-0.010911732
93	0x3d0ee58f	0.034886893
94	0x3a7091ab	0.00091769797
95	0x3ce31823	0.02772147
96	0x3d392f7a	0.045211293
97	0x3cc1a403	0.023637777
98	0xbb9bb067	-0.0047512534
99	0x3cfbd0d1	0.03073922
100	0x3c84fa96	0.01623277
101	0xbc688a4c	-0.014193129
102	0x3cebf7cb	0.02880468
103	0x3d2befc0	0.04197669
104	0x3bdb3965	0.0066901916
105	0x3cdb5757	0.026775045
106	0x3c177827	0.009244955
107	0x3d0e01e3	0.034669768
108	0x3c6d9c50	0.0145026
109	0x3d2e5455	0.042560894
110	0x3cbef43d	0.023309821
111	0xbba64cc0	-0.0050750673
112	0x3beb1fcc	0.0071754213
113	0x3c2e7baa	0.010649601
114	0x3c918fef	0.017768828
115	0x3d42af4f	0.04753047
116	0x3c88415e	0.016632732
117	0x3d04198e	0.032250933
118	0x3d10f59c	0.03539048
119	0x3ccbaafa	0.024861801
120	0x3d27a912	0.040932722
121	0x3cc3148a	0.023813505
122	0x3cc72f6d	0.024314607
123	0x3d94bc0f	0.07262432
124	0x3cc89603	0.024485594
125	0x3d0ccec3	0.03437687
126	0x3ca276ff	0.019832132
127	0x3d9b0516	0.075693294

action_model._discrete_distribution.branches.0.weight f4 [5, 128]
0	0x3ca9160f	0.020640401
1	0xbbd18bf2	-0.0063948566
2	0xbc5cc5ad	-0.013474864
3	0xbc103789	-0.008802303
4	0x3c9d048b	0.019167205
5	0x3c7182bf	0.014740645
6	0x3c3c92f1	0.011509643
7	0x3b9ec904	0.0048457403
8	0x3cc313a4	0.023813076
9	0x3ad2046a	0.0016023044
10	0x3b38dad1	0.0028206597
11	0xbd1d7946	-0.038445733
12	0x3b637245	0.003470556
13	0x3b8ad5e2	0.0042369226
14	0x3ba595dc	0.005053265
15	0x3c102600	0.008798122
16	0xba33507d	-0.0006840302
17	0x3affe055	0.0019521812
18	0xbc6bc13b	-0.014389331
19	0xbb145491	-0.0022633413
20	0x3c653519	0.01398971
21	0xbb90ec21	-0.00442268
22	0x3b8ac20b	0.0042345575
23	0x3c56c249	0.013107845
24	0xbb29ac37	-0.0025890002
25	0x3c0ea0f5	0.008705367
26	0x3bc7a571	0.00609272
27	0xbd5dfaf9	-0.054194424
28	0x3ab346b5	0.0013677689
29	0x3b8b66b8	0.0042541884
30	0x3c549ecc	0.012977313
31	0xbca2e4bd	-0.019884462
32	0xbd13ecd6	-0.036114536
33	0xbc2cbeac	-0.010543507
34	0xbc4c1503	-0.012456181
35	0x3a3fa9c1	0.0007311367
36	0xb8e9782a	-0.00011132688
37	0xbcbeae11	-0.02327636
38	0x3be456c9	0.0069683534
39	0x3c973cad	0.01846155
40	0x3b17914c	0.0023127375
41	0xbc8c04b8	-0.017092094
42	0xbd0b937a	-0.03407619
43	0xbc2b2864	-0.010446642
44	0xbd144e2c	-0.036207363
45	0xbc5b4e13	-0.013385314
46	0xbc98c10e	-0.018646743
47	0x3c102ad7	0.008799276
48	0x3b0bf0ea	0.0021353313
49	0x3bc0f863	0.005888985
50	0xbb9e3f40	-0.0048293173
51	0x3cb79371	0.022409173
52	0x3c18bc67	0.009322262
53	0x3bddc1b5	0.0067674764
54	0x3c439a8c	0.011938702
55	0xbbcd5a66	-0.00626688
56	0x3bc52ac1	0.0060170596
57	0x3b701216	0.0036631874
58	0xbc24df39	-0.010062986
59	0xbd409992	-0.047021456
60	0x3c2c00d1	0.0104982415
61	0x3ce9ff0a	0.028563995
62	0xbcc06f1d	-0.023490483
63	0x3c177cf2	0.009246098
64	0x3c9b0873	0.018924927
65	0x3c2cb26a	0.010540584
66	0xbc08c8c2	-0.008348646
67	0x3c4a00ea	0.0123293195
68	0xba8d5dd5	-0.001078541
69	0x3c7bcb76	0.015368333
70	0x3c607b43	0.013701263
71	0xbc285cc9	-0.010276028
72	0x3b1a412f	0.0023537388
73	0xbbfca6c4	-0.0077103097
74	0xbbb9f5ab	-0.005675038
75	0xbd0d8775	-0.03455301
76	0xbd11aa95	-0.03556307
77	0x3b36fca5	0.0027921584
78	0xbcb72cae	-0.022360172
79	0x3b9aea47	0.004727635
80	0x3c875250	0.016518742
81	0x3c83eb67	0.01610346
82	0x3bb2cc4a	0.005456482
83	0xbd149bfd	-0.036281575
84	0x3c24c2e0	0.010056227
85	0xbbb76bf0	-0.005597584
86	0xbd2120e7	-0.03933802
87	0xbb198488	-0.0023424942
88	0x3a26ce95	0.00063631806
89	0x3bfe246d	0.007755807
90	0x3b0dc83e	0.0021634246
91	0x39d825a7	0.00041226784
92	0x3cb1e30c	0.02171471
93	0x3b7ebd17	0.003887003
94	0x3a902e35	0.0011000099
95	0x3cbbed91	0.022940429
96	0x3c0d28fe	0.00861573
97	0x3be34961	0.0069362377
98	0x3c0206b4	0.007936168
99	0xbc2e4810	-0.010637298
100	0xbbef2809	-0.0072984737
101	0x3ca73d92	0.020415101
102	0x3c562094	0.013069291
103	0xbd8beb9b	-0.068320476
104	0x3c1fb2e6	0.009747243
105	0x3c5b1271	0.013371096
106	0xbaf7d41c	-0.0018907818
107	0x3c773f52	0.01509078
108	0x3c8e9644	0.017405637
109	0xbb79a5ed	-0.0038093284
110	0x3cf80786	0.030277025
111	0xbc878090	-0.016540796
112	0xbc6dc946	-0.014513319
113	0xbc8c7fb9	-0.017150747
114	0xba436343	-0.0007453451
115	0x3ae23a46	0.0017259798
116	0xbba4213f	-0.005008846
117	0x3bda2c1e	0.006658091
118	0x3c2fea2f	0.010736986
119	0xbc06d554	-0.008229572
120	0x3a364ca9	0.0006954172
121	0xbbe95884	-0.0071211476
122	0xbcafc927	-0.021458222
123	0x3a958553	0.0011407532
124	0xbc7b9116	-0.015354415
125	0xbc6ea811	-0.014566437
126	0x3b1ec26a	0.0024224767
127	0xbbbfd759	-0.005854529
128	0x3c8a9d73	0.01692078
129	0xbbcf4440	-0.0063252747
130	0xbd2af093	-0.041733336
131	0x3d89f3d0	0.06735957
132	0x3c948b1b	0.018132737
133	0xba88a16c	-0.0010424084
134	0x3c7556f4	0.0149743445
135	0x3d8a8a17	0.0676462
136	0x3d0fb7f2	0.035087533
137	0x3d65c952	0.056100197
138	0x3c393f10	0.011306539
139	0xbd0a6074	-0.03378339
140	0x3ca7f7ed	0.020503962
141	0x3c2053d2	0.009785609
142	0x3c957e5e	0.018248733
143	0x3d074b3f	0.033030745
144	0x3c6b90cf	0.014377787
145	0xbd9f3fc5	-0.07775835
146	0xbda6e946	-0.08149962
147	0x3c865f78	0.016402945
148	0xbd0b1e95	-0.033964712
149	0x3d535940	0.051598787
150	0x3ce19672	0.027537558
151	0x3c9a5a53	0.018841898
152	0xbba39ace	-0.0049928194
153	0x3cda9675	0.026683072
154	0xbb96315e	-0.0045835217
155	0xbd4335c8	-0.04765871
156	0x3cdf32bd	0.027245874
157	0x3cae1724	0.021251269
158	0xbcda8f13	-0.026679551
159	0xbb848d46	-0.0040451614
160	0xbd9d8390	-0.07691109
161	0x3d3f9777	0.046775308
162	0xb9e9f679	-0.0004462486
163	0xbd332518	-0.043736547
164	0x3d35e578	0.04440829
165	0x3bda3248	0.006658826
166	0xbcab03cc	-0.020875834
167	0x3c921724	0.0178333
168	0x3c29e025	0.010368382
169	0xbdc2f209	-0.09518821
170	0xbda425c2	-0.08015014
171	0xbb853997	-0.004065703
172	0xbd4fe190	-0.050752223
173	0xbc868f50	-0.016425759
174	0x3bd3eda9	0.0064675403
175	0x3c2a42da	0.010391915
176	0xbca185b9	-0.019717084
177	0x3bbf69af	0.005841456
178	0x3c6fd595	0.014638324
179	0xbcc23790	-0.023708135
180	0xbcdb6cdd	-0.026785308
181	0x3c8eb459	0.01741998
182	0xbda62e0c	-0.081142515
183	0xbaa34284	-0.0012455736
184	0x3be21cdf	0.0069004144
185	0xbd151136	-0.036393367
186	0x3c8fa3af	0.017534105
187	0xbd712731	-0.058875266
188	0xbccfbcf6	-0.025358658
189	0xbdb52bcd	-0.08846245
190	0xbd987293	-0.07443728
191	0xbd1d36a0	-0.038382173
192	0x3d21a105	0.0394602
193	0x3d84c2ff	0.06482505
194	0x3c3e792e	0.011625571
195	0x3cd4e69c	0.02598887
196	0x3d1a963d	0.037740935
197	0xbc004a63	-0.007830235
198	0x3b2d2f57	0.0026425922
199	0x3bab7542	0.005232484
200	0xbd2f7c20	-0.042842984
201	0x3d3da0cd	0.04629593
202	0x38b3103e	8.5384105e-05
203	0x3ae2d31c	0.0017305347
204	0xbc6112b5	-0.01373737
205	0x3ce5d1ec	0.0280542
206	0xbc592dc6	-0.013255542
207	0xbc999aa1	-0.01875049
208	0xbd9bcb38	-0.0760712
209	0x3b689b5d	0.0035492994
210	0x3d11e6c3	0.035620462
211	0xbdb2fd29	-0.08739693
212	0xbc920a48	-0.017827168
213	0x3d2b1bb2	0.04177446
214	0xbd971986	-0.07377915
215	0x3c8ac2d3	0.016938603
216	0x3baaaf81	0.00520891
217	0xbc231917	-0.009954712
218	0x3c9e1e2d	0.019301498
219	0x3c6c82af	0.014435454
220	0xbd2bf591	-0.041982237
221	0x3b546191	0.0032406787
222	0xbcb6effb	-0.022331228
223	0x3c34396e	0.01100002
224	0xbdd60e29	-0.104519196
225	0xbc08c823	-0.008348498
226	0xbcf944a3	-0.030428236
227	0x3be34cd5	0.0069366493
228	0xbb0eb89c	-0.0021777516
229	0xbd2bb6d9	-0.041922424
230	0xbc0eb858	-0.008710943
231	0xbca8e333	-0.02061615
232	0x3c01f65a	0.00793227
233	0x3c5b8466	0.0133982655
234	0xbaf72308	-0.0018855045
235	0x3cdaeb7c	0.026723616
236	0xbd5d3e71	-0.054014627
237	0x3d3025f6	0.043004952
238	0x3cc63d74	0.024199225
239	0xbcb0033e	-0.021485921
240	0x3bb5e96d	0.005551508
241	0xb95e903a	-0.00021225298
242	0x3ccb3a31	0.024808021
243	0xbcf3d056	-0.029762428
244	0xbbf3da43	-0.0074417903
245	0x3b5ea67f	0.003397375
246	0x3cada2ca	0.021195788
247	0x3c482fb0	0.012218401
248	0x3d736e2b	0.059431236
249	0xbc8a3b05	-0.016873846
250	0xbbf3f7c2	-0.0074453065
251	0x3cf0c958	0.029392883
252	0xbc96110a	-0.018318672
253	0x3c5c342e	0.013440175
254	0x3ca07a06	0.019589435
255	0x3da3e6ab	0.08002981

action_model._discrete_distribution.branches.0.bias f4 [5]
0	0xbd13850a	-0.036015548
1	0x3ce5c3e5	0.028047511
2	0xbcbc4fab	-0.022987207
3	0x3be246b6	0.006905402
4	0x3c47e27d	0.012199995

onnx::Div_52 f4 [21]
0	0x3ebc7da2	0.368146
1	0x3ebc9c16	0.36837834
2	0x3ea20f4c	0.31652296
3	0x3eac355c	0.3363446
4	0x3eac5042	0.33654982
5	0x3e953fb2	0.29150158
6	0x3eb12423	0.34597883
7	0x3eb1414a	0.34620124
8	0x3e9b6257	0.30348465
9	0x3e949838	0.29022384
10	0x3e94a6ea	0.29033595
11	0x3e834337	0.25637218
12	0x3e9bb5aa	0.30412036
13	0x3e9bc59e	0.30424207
14	0x3e8988eb	0.26862273
15	0x3e7dfc75	0.24803336
16	0x3e7e1afd	0.24814983
17	0x3e58d536	0.21175084
18	0x3e7f5196	0.24933466
19	0x3e7f63c6	0.24940404
20	0x3e5ee6b5	0.21767695
